…
sing its ability to classify images. Let’s next take a look at the journey an image takes through the network so we can get a little bit more of an understanding of why this works.





Exploring the Convolutional Network


You can inspect your model using the model.summary command. When you run it on the Fashion MNIST convolutional network we’ve been working on you’ll see something like this:

Model: "sequential" _________________________________________________________________ Layer (type) Output Shape Param # ================================================================= conv2d (Conv2D) (None, 26, 26, 64) 640 _________________________________________________________________ max_pooling2d (MaxPooling2D) (None, 13, 13, 64) 0 _________________________________________________________________ conv2d_1 (Conv2D) (None, 11, 11, 64) 36928 _________________________________________________________________ max_pooling2d_1 (MaxPooling2 (None, 5, 5, 64) 0 _________________________________________________________________ flatten (Flatten) (None, 1600) 0 _________________________________________________________________ dense (Dense) (None, 128) 204928 _________________________________________________________________ dense_1 (Dense) (None, 10) 1290 ================================================================= Total params: 243,786 Trainable params: 243,786 Non-trainable params: 0

Let’s first take a look at the Output Shape column to understand what is going on here. Our first layer will have 28 × 28 images, and apply 64 filters to them. But because our filter is 3 × 3, a 1-pixel border around the image will be lost, reducing our overall information to 26 × 26 pixels. Consider Figure 3-6. If we take each of the boxes as a pixel in the image, the first possible filter we can do starts at the second row and the second column. The same would happen on the right side and at the bottom of the diagram.
…
At the other end, notice that there’s only one neuron in the output layer. This is because we’re using a binary classifier, and we can get a binary classification with just a single neuron if we activate it with a sigmoid function. The purpose of the sigmoid function is to drive one set of values toward 0 and the other toward 1, which is perfect for binary classification.

Next, notice how we stack several more convolutional layers. We do this because our image source is quite large, and we want, over time, to have many smaller images, each with features highlighted. If we take a look at the results of model.summary we’ll see this in action:

================================================================= conv2d (Conv2D) (None, 298, 298, 16) 448 _________________________________________________________________ max_pooling2d (MaxPooling2D) (None, 149, 149, 16) 0 _________________________________________________________________ conv2d_1 (Conv2D) (None, 147, 147, 32) 4640 _________________________________________________________________ max_pooling2d_1 (MaxPooling2 (None, 73, 73, 32) 0 _________________________________________________________________ conv2d_2 (Conv2D) (None, 71, 71, 64) 18496 _________________________________________________________________ max_pooling2d_2 (MaxPooling2 (None, 35, 35, 64) 0 _________________________________________________________________ conv2d_3 (Conv2D) (None, 33, 33, 64) 36928 _________________________________________________________________ max_pooling2d_3 (MaxPooling2 (None, 16, 16, 64) 0 _________________________________________________________________ conv2d_4 (Conv2D) (None, 14, 14, 64) 36928 _________________________________________________________________ max_pooling2d_4 (MaxPooling2 (None, 7, 7, 64) 0 _________________________________________________________________ flatten (Flatten) (None, 3136) 0 _________________________________________________________________ dense (Dense) (None, 512) 1606144 _________________________________________________________________ dense_1 (Dense) (None, 1) 513 ================================================================= Total params: 1,704,097 Trainable params: 1,704,097 Non-trainable params: 0 _________________________________________________________________

Note how, by the time the data has gone through all the convolutional and pooling layers, it ends up as 7 × 7 items. The theory is that these will be activated feature maps that are relatively simple, containing just 49 pixels. These feature maps can then be passed to the dense neural network to match them to the appropriate labels.
…
